…
lhost:8080/"},"executionInfo":{"status":"ok","timestamp":1710226389267,"user_tz":-330,"elapsed":614,"user":{"displayName":"Akshat Tiwari","userId":"03119927264357683223"}},"outputId":"f3887194-e7ac-4f9b-81cf-10212c45b379"},"source":["model.summary()"],"execution_count":null,"outputs":[{"output_type":"stream","name":"stdout","text":["Model: \"sequential\"\n","_________________________________________________________________\n"," Layer (type)                Output Shape              Param #   \n","=================================================================\n"," conv2d (Conv2D)             (None, 28, 28, 32)        320       \n","                                                                 \n"," max_pooling2d (MaxPooling2  (None, 14, 14, 32)        0         \n"," D)                                                              \n","                                                                 \n"," conv2d_1 (Conv2D)           (None, 14, 14, 32)        9248      \n","                                                                 \n"," max_pooling2d_1 (MaxPoolin  (None, 7, 7, 32)          0         \n"," g2D)                                                            \n","                                                                 \n"," flatten (Flatten)           (None, 1568)              0         \n","                                                                 \n"," dense (Dense)               (None, 128)               200832    \n","                                                                 \n"," dropout (Dropout)           (None, 128)               0         \n","                                                                 \n"," dense_1 (Dense)             (None, 10)                1290      \n","                                                                 \n","=================================================================\n","Total params: 211690 (826.91 KB)\n","Trainable params: 211690 (826.91 KB)\n","Non-trainable params: 0 (0.00 Byte)\n","_________________________________________________________________\n"]}]},{"cell_type":"code","metadata":{"id":"aRA3gfFDyiuA"},"sour
…
